…
= layers.Dense(32, activation='relu')(title_features)\n\ntitle_output = layers.Dense(1, activation='sigmoid', name=\"title_output\")(title_features)\n\n#create model 1\nmodel_1 = tf.keras.Model(inputs=title_input, outputs=title_output)\nmodel_1.summary()\n\nModel: \"functional_1\"\n\n\n\n┏━━━━━━━━━━━━━━━━━━━━━━━━━━━━━━━━━━━━━━┳━━━━━━━━━━━━━━━━━━━━━━━━━━━━━┳━━━━━━━━━━━━━━━━━┓\n┃ Layer (type)                         ┃ Output Shape                ┃         Param # ┃\n┡━━━━━━━━━━━━━━━━━━━━━━━━━━━━━━━━━━━━━━╇━━━━━━━━━━━━━━━━━━━━━━━━━━━━━╇━━━━━━━━━━━━━━━━━┩\n│ title (InputLayer)                   │ (None, 1)                   │               0 │\n├──────────────────────────────────────┼─────────────────────────────┼─────────────────┤\n│ text_vectorization                   │ (None, 500)                 │               0 │\n│ (TextVectorization)                  │                             │                 │\n├──────────────────────────────────────┼─────────────────────────────┼─────────────────┤\n│ embedding (Embedding)                │ (None, 500, 3)              │           6,000 │\n├──────────────────────────────────────┼─────────────────────────────┼─────────────────┤\n│ dropout (Dropout)                    │ (None, 500, 3)              │               0 │\n├──────────────────────────────────────┼─────────────────────────────┼─────────────────┤\n│ global_average_pooling1d             │ (None, 3)                   │               0 │\n│ (GlobalAveragePooling1D)             │                             │                 │\n├──────────────────────────────────────┼─────────────────────────────┼─────────────────┤\n│ dense (Dense)                        │ (None, 64)                  │             256 │\n├──────────────────────────────────────┼─────────────────────────────┼─────────────────┤\n│ dropout_1 (Dropout)                  │ (None, 64)                  │               0 │\n├──────────────────────────────────────┼─────────────────────────────┼─────────────────┤\n│ dense_1 (Dense)                      │ (None, 32)                  │           2,080 │\n├──────────────────────────────────────┼─────────────────────────────┼─────────────────┤\n│ title_output (Dense)                 │ (None, 1)                   │              33 │\n└──────────────────────────────────────┴─────────────────────────────┴─────────────────┘\n\n\n\n Total params: 8,369 (32.69 KB)\n\n\n\n Trainable params: 8,369 (32.69 KB)\n\n\n\n Non-trainable params: 0 (0.00 B)\n\n\n\nNow that we have created Model 1, we can visualize and further understand the structure of the model by creating a flowchart. The following code was provided in the blog post in
…
output = layers.Dense(1, name = \"genre\")(main)\n\n\n#define our model so that our inputs are both article title and article text\nmodel_3 = keras.Model(\n    inputs = [title_input, text_input],\n    outputs = output\n)\n\nmodel_3.summary()\n\nModel: \"functional_5\"\n\n\n\n┏━━━━━━━━━━━━━━━━━━━━━━━━━━━┳━━━━━━━━━━━━━━━━━━━━━━━━┳━━━━━━━━━━━━━━━━┳━━━━━━━━━━━━━━━━━━━━━━━━┓\n┃ Layer (type)              ┃ Output Shape           ┃        Param # ┃ Connected to           ┃\n┡━━━━━━━━━━━━━━━━━━━━━━━━━━━╇━━━━━━━━━━━━━━━━━━━━━━━━╇━━━━━━━━━━━━━━━━╇━━━━━━━━━━━━━━━━━━━━━━━━┩\n│ title (InputLayer)        │ (None, 1)              │              0 │ -                      │\n├───────────────────────────┼────────────────────────┼────────────────┼────────────────────────┤\n│ text (InputLayer)         │ (None, 1)              │              0 │ -                      │\n├───────────────────────────┼────────────────────────┼────────────────┼────────────────────────┤\n│ text_vectorization        │ (None, 500)            │              0 │ title[0][0],           │\n│ (TextVectorization)       │                        │                │ text[0][0]             │\n├───────────────────────────┼────────────────────────┼────────────────┼────────────────────────┤\n│ embedding (Embedding)     │ (None, 500, 3)         │          6,000 │ text_vectorization[0]… │\n│                           │                        │                │ text_vectorization[1]… │\n├───────────────────────────┼────────────────────────┼────────────────┼────────────────────────┤\n│ dropout (Dropout)         │ (None, 500, 3)         │              0 │ embedding[0][0]        │\n├───────────────────────────┼────────────────────────┼────────────────┼────────────────────────┤\n│ dropout_2 (Dropout)       │ (None, 500, 3)         │              0 │ embedding[1][0]        │\n├───────────────────────────┼────────────────────────┼────────────────┼────────────────────────┤\n│ global_average_pooling1d  │ (None, 3)              │              0 │ dropout[0][0]          │\n│ (GlobalAveragePooling1D)  │                        │                │                        │\n├───────────────────────────┼────────────────────────┼────────────────┼────────────────────────┤\n│ global_average_pooling1d… │ (None, 3)              │              0 │ dropout_2[0][0]        │\n│ (GlobalAveragePooling1D)  │                        │                │                        │\n├───────────────────────────┼────────────────────────┼────────────────┼────────────────────────┤\n│ dense (Dense)             │ (None, 64)             │            256 │ global_average_poolin… │\n├───────────────────────────┼────────────────────────┼────────────────┼────────────────────────┤\n│ dense_2 (Dense)           │ (None, 64)             │            256 │ global_average_poolin… │\n├───────────────────────────┼────────────────────────┼────────────────┼────────────────────────┤\n│ dropout_1 (Dropout)       │ (None, 64)             │              0 │ dense[0][0]            │\n├───────────────────────────┼────────────────────────┼────────────────┼────────────────────────┤\n│ dropout_3 (Dropout)       │ (None, 64)             │              0 │ dense_2[0][0]          │\n├───────────────────────────┼────────────────────────┼────────────────┼────────────────────────┤\n│ dense_1 (Dense)           │ (None, 32)             │          2,080 │ dropout_1[0][0]        │\n├───────────────────────────┼────────────────────────┼────────────────┼────────────────────────┤\n│ dense_3 (Dense)           │ (None, 32)             │          2,080 │ dropout_3[0][0]        │\n├───────────────────────────┼────────────────────────┼────────────────┼────────────────────────┤\n│ concatenate (Concatenate) │ (None, 64)             │              0 │ dense_1[0][0],         │\n│                           │                        │                │ dense_3[0][0]          │\n├───────────────────────────┼────────────────────────┼────────────────┼────────────────────────┤\n│ dense_4 (Dense)           │ (None, 32)             │          2,080 │ concatenate[0][0]      │\n├───────────────────────────┼────────────────────────┼────────────────┼────────────────────────┤\n│ dense_5 (Dense)           │ (None, 32)             │          1,056 │ dense_4[0][0]          │\n├───────────────────────────┼────────────────────────┼────────────────┼────────────────────────┤\n│ dropout_4 (Dropout)       │ (None, 32)             │              0 │ dense_5[0][0]          │\n├───────────────────────────┼────────────────────────┼────────────────┼────────────────────────┤\n│ genre (Dense)             │ (None, 1)              │             33 │ dropout_4[0][0]        │\n└───────────────────────────┴────────────────────────┴────────────────┴────────────────────────┘\n\n\n\n Total params: 13,841 (54.07 KB)\n\n\n\n Trainable params: 13,841 (54.07 KB)\n\n\n\n Non-trainable params: 0 (0.00 B)\n\n\n\nNow that we have created Model 3, we can visualize and further understand the structure of the model by creating a flowchart. The following co
…
e(2, activation='softmax'),  # outputs the final classification\n])\n\nNow that we have our model, use the code cell below to determine the summary of the model’s accuracy.\n\n# Compile the model\nmodel4.compile(optimizer='adam',\n               loss='sparse_categorical_crossentropy',\n               metrics=['accuracy'])\nmodel4.summary()\n\nModel: \"sequential_5\"\n_________________________________________________________________\n Layer (type)                Output Shape              Param #   \n=================================================================\n random_flip_3 (RandomFlip)  (None, 150, 150, 3)       0         \n                                                                 \n random_rotation_3 (RandomR  (None, 150, 150, 3)       0         \n otation)                                                        \n                                                                 \n model_1 (Functional)        (None, 5, 5, 960)         2996352   \n                                                                 \n global_max_pooling2d (Glob  (None, 960)               0         \n alMaxPooling2D)                                                 \n                                                                 \n dropout_6 (Dropout)         (None, 960)               0         \n                                                                 \n dense_9 (Dense)             (None, 2)                 1922      \n                                                                 \n=================================================================\nTotal params: 2998274 (11.44 MB)\nTrainable params: 1922 (7.51 KB)\nNon-trainable params: 2996352 (11.43 MB)\n_________________________________________________________________\n\n\nUse the following code cell to determine history just as we have done for the
…
